rpc-sim_100000-events_0000-noise_000042-seed/events.pt (torch, 6471 bytes, 7 tensors)

fc1.weight f4 [20, 3]
00000000: f1c4 ddbe 8a07 1bbf 6dcb 1f3c 6257 aa3e
00000010: bff6 02bf 6f1c aa3e 63cc f0be f5e4 8a3d
00000020: 134a b63e 8aad 063e 498a 413e 5460 aabe
00000030: d321 ae3e ddbf 4e3e 1f51 05bf ad20 1abf
00000040: 737c 5abe a12e f8be d0c5 9ebe 4364 ab3e
00000050: 1e5b 16bf 3a53 81be 86f6 d8be 29f2 c0be
00000060: 6151 e4be 956d b83e ae8b c8be 71f3 4cbe
00000070: 360f 103f f22d aabd d2d5 8fbe 70c6 c33d
00000080: 3f70 173d 741d f83e de72 0cbf c956 ea3e
00000090: 4882 03bf 1da1 c73e f8ec 9c3c 5079 64be
000000a0: 5b75 37bc 0997 6fbe d554 13be 4e85 04bf
000000b0: 9272 d5bc 9aeb 6cbe 04cb 9b3e f855 12be
000000c0: a169 0ebf d418 8a3c d22d 88bc be04 653e
000000d0: af58 a8be 6298 e2be b031 0e3f 4b27 e2be
000000e0: 2f4f a1be 2ad3 2abe b42c 05bf f36a f9be
-0.43314317 -0.6055838 0.00975309 0.33269793 -0.51157755 0.33224818 -0.47030935 0.06781951
0.3560339 0.13152137 0.18900408 -0.33276618 0.3401018 0.20190378 -0.52076906 -0.6020611
-0.21336536 -0.48473075 -0.31010294 0.3347493 -0.58732784 -0.2525881 -0.42375582 -0.37684754
-0.44593337 0.36021104 -0.39169067 -0.2001474 0.5627321 -0.083095446 -0.2809282 0.09559333
0.03697228 0.4845997 -0.54862773 0.45769337 -0.5137067 0.38990107 0.019155964 -0.22311902
-0.011197413 -0.23397459 -0.1438783 -0.51765907 -0.026055608 -0.2313675 0.30428326 -0.14290607
-0.55629927 0.016857542 -0.016623411 0.2236509 -0.3288016 -0.44256884 0.5554457 -0.44170603
-0.31505725 -0.16682115 -0.52021337 -0.48714408

fc1.bias f4 [20]
00000000: 41b9 71bd f38a 2d3f 2f96 dc3e 8dec 2abd
00000010: 2a0c 14bf d69e a7be b1e3 bcbe 9d36 973e
00000020: 058f fd3e 7589 f7be 930c e5be 68a4 07bf
00000030: 94ae ae3e 22ed 8cbe 3906 cb3e 5c4a 0c3f
00000040: d59c f83e 1949 573f 6970 ce3d 75dd d7be
-0.059014563 0.67790145 0.4308333 -0.0417295 -0.5783106 -0.3273837 -0.36892465 0.29533854
0.49523178 -0.4834706 -0.44736156 -0.5298524 0.34117568 -0.27524668 0.39653185 0.54800963
0.48557153 0.84095913 0.10080034 -0.42161146

fc2.weight f4 [20, 20]
00000000: ab40 32bd 01b9 46bd b9d1 a43d 46fc 0e3e
00000010: 34b8 bf3d 8aff 273e 1e30 47be cd16 45be
00000020: 3651 b83c 6441 063e c785 5d3e 5a19 19bc
00000030: 50e3 16be 0885 0abe f744 5bbd 3386 de3c
00000040: c028 453d c222 98bc 3421 583d d4c9 fa3d
00000050: aa10 2f3e 3459 293d 039d 3c3b ae42 00be
00000060: 7224 ffbc d2a1 4dbd 0bc0 323c 5be5 b73d
00000070: b355 223d 0df8 353d 2bd8 223d 5b89 843d
00000080: 5d49 9cbd 9ccf df3b 371b 03be 3024 1b3e
00000090: fb4e 0dbe c53f 9a3e dd41 063e a8be 9e3c
000000a0: a8c2 4ebe fcc5 64bc e251 7cbd ca77 0bbe
000000b0: acbf 8ebd 8bd0 5ebe fc11 bebc d69e 3ebd
000000c0: 7402 263e cfbe 08be ca82 6dbd 9b4d 0ebe
000000d0: 0534 13bc c2f3 b53c 5c34 47be 5d42 953d
000000e0: 59df 383e 6bbb edbd 020d cc3b a302 0ebd
000000f0: d268 b53b 485e e6bd 8a2b 293d 7413 263d
00000100: 0a0f 803e 301a b73d d7e8 e1bd 7537 0dbe
00000110: a038 0abe e239 bbbc 493b 653e 1323 9abd
00000120: bdb0 2abe d2cf 5a3e 8f91 1a3e 0383 4bbe
00000130: a4fa 093e 44a7 4b3e 744b 1c3e 726e 493e
00000140: 80e3 ad3e b634 693e fbad b23e 4f8a bd3a
00000150: 75a4 8d3c 3a86 14be 6df3 453e bcaf 87be
00000160: d382 d43d db88 2fbe dceb b1bd 54b9 f33d
00000170: f303 053e f00b f63d 4b41 ca3d 2aeb d8bd
00000180: c50f c8bd 6746 98be 72d2 33bd 44fb 05be
00000190: 9b7e 12bd db34 06be ca10 e1bd b43d fdbc
000001a0: 6b65 1fbd 46ba 4bbd 9452 133e 229e 5fbd
000001b0: 2e0b 4ebe ab01 54be 0351 483e e641 fe3d
000001c0: ee55 953d 2d1e c13c e457 ecbd e279 313c
000001d0: c587 ddbd 3e09 5fbe d43d 1cbe 951b 31be
000001e0: 08e5 26be 092e 963d 9032 9dba e197 d23d
000001f0: a310 dabd c7e6 03be 94c8 35bc 916f 52be
00000200: 96cd 69bd 5e64 4dbe 7070 27be a756 27bc
00000210: ecc0 bebd 090d d83d b18c 343c 875e 553e
00000220: 277f 3fbe 80f7 0c3e 5b71 35bd 2c8b 2c3d
00000230: 29ab 7fbe d800 863d 0aa6 8dbc 68c6 483e
00000240: 4fb1 14be 8465 863e 7569 5b3e bda8 463e
00000250: cccc cc3e 32ad 3e3e 8ec3 753c c90d 513e
00000260: 8131 0c3e 4599 913e f24e 2dbe e9b7 233e
00000270: 4050 733e a842 d43e e29b 43be 1063 343d
00000280: f323 2fbe 4fa9 17be 5f67 7f3d 6ac1 4bbe
00000290: 14c3 34be 66e8 82bd 100a c73c 0101 5dbe
000002a0: 7260 5abe 8763 26bc cf70 e53d bf1f 2d3e
000002b0: e6ec 9fbd cf6e 0f3d 1fe5 9d3c 579d 8fbd
000002c0: 3f7a 25be d491 3c3e 576a 4cbe fbeb 8c3d
000002d0: f074 47bd 5aca 0cbe a6af fe3c ba02 2cbe
000002e0: 0810 a73d 670a 54be 1998 553e 9154 813d
000002f0: 20ac b4bd ccf0 37be 9fcb 35be 949e a33c
00000300: 61ec 163e a05c 1cbd fdc1 c53d 624f 14be
00000310: 2961 2cbe fae8 163e 1e8a 413e 7aa0 db3d
00000320: 3dae 61bd 9f4e 68bd 238d 5dbd 28c4 34be
00000330: ced0 3a3e 8727 3e3e 1996 873d dd70 003e
00000340: 0cec d0bd ba95 5fbe f7ac 103e ef89 c43c
00000350: c5e6 f43c 9a20 b8bc e16b 31be 5da1 e4bd
00000360: 07e5 4bbe bafb 1f3e 7245 edbd b24e 01bc
00000370: f7e2 1bbd ec30 023e c106 6dbe 701d c03d
00000380: d638 ecbc 3980 373e 2076 ba3c 0d36 813d
00000390: 7ad5 31be 3d97 39be a267 84bd cd92 693e
000003a0: 2f67 d5bd 1fce 1cbe c79d 48be 4b7d 45be
000003b0: ac64 403e cde9 48be f4b8 e2bd cd9a 0ebe
000003c0: c02b 2bbe 8fa2 14bd b8b4 51be 0c7d debc
000003d0: 7b88 a0bd c43a bebd 3930 cc3d 2a14 523d
000003e0: bc68 adbd 7866 5c3d 3823 16be b93b 8b3d
000003f0: adc8 3abe 800e 4b3e b33a 203e 8921 9e3d
-0.043518703 -0.048516277 0.08047814 0.13963422 0.09361306 0.16406074 -0.19451949 -0.19246979
0.022499662 0.13110882 0.21633063 -0.009344423 -0.1473515 -0.1352731 -0.053532567 0.0271636
0.048134565 -0.018571261 0.05276604 0.12245527 0.170962 0.041344836 0.002878011 -0.12525436
-0.031145308 -0.050203152 0.010910044 0.08979293 0.03963251 0.044426013 0.039756935 0.06471511
-0.076311804 0.006830169 -0.1280335 0.15150523 -0.1379966 0.30126777 0.13111062 0.019378021
-0.20191443 -0.013963219 -0.061601527 -0.13619915 -0.06970152 -0.2175924 -0.023201935 -0.046538197
0.16211873 -0.13354038 -0.05798606 -0.13896792 -0.00898457 0.02221096 -0.19453567 0.072880484
0.1805395 -0.11608013 0.0062271366 -0.034670483 0.005536177 -0.112484515 0.041301288 0.040545896
0.25011474 0.08940542 -0.11030739 -0.13790686 -0.13498163 -0.02285475 0.22385897 -0.07526221
-0.16668983 0.2136834 0.15094589 -0.19874196 0.13474518 0.19888026 0.15263158 0.19671038
0.3396263 0.22774014 0.34898362 0.0014460775 0.017290333 -0.14504328 0.19331141 -0.26501262
0.10376515 -0.1714205 -0.08687565 0.11900583 0.12989788 0.12013996 0.09875735 -0.10591729
-0.09768633 -0.29741213 -0.04390187 -0.13084131 -0.03576527 -0.131061 -0.109895304 -0.030913211
-0.03891508 -0.04973819 0.1438697 -0.054594167 -0.20121452 -0.20703761 0.19562154 0.12414913
0.072917804 0.02357396 -0.11540201 0.010832282 -0.108169116 -0.2178087 -0.1525796 -0.17295678
-0.16298306 0.07332999 -0.0011993218 0.10282875 -0.106477045 -0.12881003 -0.011095185 -0.20550372
-0.057080828 -0.20057818 -0.16351485 -0.010213531 -0.09314141 0.10549361 0.011019872 0.2083684
-0.18700849 0.13766289 -0.044297557 0.042124912 -0.24967636 0.0654313 -0.017291088 0.19606936
-0.14520763 0.26249325 0.21426947 0.19400306 0.39999998 0.18620756 0.015000237 0.20415415
0.13690759 0.28437248 -0.16924646 0.15988125 0.23761082 0.41457105 -0.19102433 0.044039786
-0.17103557 -0.1481068 0.06235444 -0.19898 -0.17652541 -0.06391983 0.02429679 -0.21582414
-0.21325853 -0.010155565 0.11203157 0.16906641 -0.07808857 0.035017785 0.019274293 -0.07012432
-0.16159914 0.18415004 -0.1996244 0.06880947 -0.048695505 -0.13749066 0.031089615 -0.16797915
0.081573546 -0.20707093 0.20858802 0.06314958 -0.08821893 -0.1796295 -0.17753457 0.019973077
0.14738609 -0.03817427 0.09656141 -0.14483407 -0.16833939 0.14737311 0.18900344 0.10723968
-0.055097807 -0.056715604 -0.054089677 -0.17652953 0.18243715 0.18569766 0.06620426 0.12543054
-0.10201272 -0.2183446 0.14128481 0.023991553 0.029895196 -0.022476483 -0.17326309 -0.1116359
-0.19911586 0.1562337 -0.11585511 -0.007892298 -0.038058247 0.12713975 -0.23147108 0.09380615
-0.028835695 0.17920007 0.022761405 0.063091375 -0.17366591 -0.18124099 -0.06465079 0.22809906
-0.10420071 -0.15313004 -0.19591437 -0.19286077 0.18788403 -0.19620438 -0.11070433 -0.1392624
-0.16715908 -0.03628784 -0.20479095 -0.027159236 -0.078385316 -0.092885524 0.09970135 0.05128876
-0.08467242 0.05380866 -0.14661872 0.067985006 -0.18240614 0.1982975 0.15647392 0.0772124

fc2.bias f4 [20]
00000000: a5a2 57be 06c1 3f3e 5e8a 3bbe ba2b b33d
00000010: 31ca 963e a236 7e3c 93ef b83c c3f6 1ebd
00000020: e6ff 313d 9152 703e 58bd c3bd 1d56 00be
00000030: 0eab b33d 37dd 363e 5081 9bbc c0b1 54be
00000040: 1d43 49be 13f5 613e 7be1 c03e f487 b23d
-0.21058138 0.18725976 -0.18314502 0.087485746 0.29451135 0.015515955 0.022575175 -0.03880955
0.043456934 0.23468997 -0.09557599 -0.1253285 0.087728605 0.17857824 -0.01898256 -0.20770931
-0.19654508 0.22066145 0.37672028 0.08717337

fc3.weight f4 [20, 20]
00000000: fe73 453d aaac d5bb a5c3 7c3d 9c9d debc
00000010: 5e50 323c 1fd8 8c3d 0691 afbd 20c7 283e
00000020: 62b6 363e 0d22 253e e4ca 53bd ca9f b03c
00000030: 67fb 41be 50e0 9b3c ba0d 3bbe fa55 e5bd
00000040: 69b1 0a3e b0c4 6bbe 3d0f 57bd 72a5 293d
00000050: a1c9 85bd 71f0 4b3e 1ce9 17be e8bb a73d
00000060: 119e 10be 4d67 87bc bae9 093e f1dd c43e
00000070: 522f df3d a2aa 7b3d e780 153e 26c9 3c3e
00000080: d888 513e 96b5 1fbe af8a 02be 9f9f 533e
00000090: f332 57be 0688 9b3e 2e44 f93d 78f2 0b3e
000000a0: 9cf3 603d 08bc 1d3d a745 b7bd 115a 4b3d
000000b0: fa44 11be dccf 503e b0e2 20be 6798 61be
000000c0: 5d25 d1bc cb01 01be 3f27 9b3d 4394 e33d
000000d0: 215a 03bd b15d 143e 2125 3cbe b741 50be
000000e0: 148d 8fbd 75a0 e03d b9df b2bd 9fc4 92bd
000000f0: be2d 15be fb15 48be 4288 f8bd 6423 0cbd
00000100: 7c89 243e 1ab0 97bd d032 66bd ffba af3d
00000110: 7c25 283d 7cee ef3d 79f5 d73d de75 fe3d
00000120: 361e 803d ae00 673e c573 51be c523 18be
00000130: e008 3a3d d4f0 d53c ff49 f5bd 94df 45bd
00000140: cc36 4e3e 9ba9 3bbe 7c71 0c3e 289c 4cbe
00000150: 8f6f 9c3d 8485 39be a0f2 ebbd 9e34 3ebd
00000160: 3701 9f3d 0a71 51be bd33 213e aa3d b9bd
00000170: bfac 453e 60e7 b6bd f02d 11bd f760 683d
00000180: 3885 ff3d 63bc b6bc da25 e0bd 6f56 0f3e
00000190: 1990 40be b2e6 8dbd 8b97 51be f919 5fbe
000001a0: a299 413e 6ab1 f9bc a091 1a3e 2ff6 35be
000001b0: abbf b33d 1b64 10be bf60 313e 8976 173e
000001c0: e9ff adbd 3b02 8a3d ad98 ec3d 854b 5c3e
000001d0: f982 0c3e e53b af3c 1c8b 7a3e 281e 033e
000001e0: 7840 213e 13ef 9b3d 337c 3b3e 4f30 5c3d
000001f0: 2ebc 9d3d 015e 4dbe d057 30be e024 e6bd
00000200: afb2 54be 6d1d 59be 8d78 90bd 9d89 f23c
00000210: 8043 5bbe ae1c 58be ba69 023e f640 38bc
00000220: e86e 5bbd 505b 24bd c42b b6bd cb57 b0bd
00000230: 2535 5b3d cce0 e6bd fe42 61be 8eb8 433d
00000240: caff 05be 2f5f 6bbd 7b22 84bd d31d 4ebe
00000250: 8dc2 463e b59c 4fbe db34 11be afcf 1abe
00000260: 56c4 873d 824e 0bbe e102 093d e4a5 aa3c
00000270: 2f3e 12be 92ee 0abe ab65 4cbc 2393 103e
00000280: 394b 15be 88c8 13be 36aa 26be 35b4 2bbe
00000290: 994f 453e 449b 193e 6b92 dbbd 7f6b 043e
000002a0: 8a5c 113e 3d63 413e 31a8 e7bd b830 12be
000002b0: 74ef 0f3e 9167 1abe 1397 67be 31a2 2f3e
000002c0: 1965 a03d c51a 603e 999f 48be e78a eebc
000002d0: 1c79 003e c65d 3fbe 54e4 7dbd d218 55bd
000002e0: 0009 ebbd 8d75 c13d cd30 083e 115c 0dbe
000002f0: 95f4 563e 824b 48bd 108a 98bd 08fd 3fbe
00000300: bdbb 04bd 2163 32bc b612 5abe a569 943c
00000310: a7a6 f7bd 3f7a 47be 8864 e3bd d70f 893d
00000320: 2ffc 823d 1f53 9cbe 2b35 03bd b95e 6d3e
00000330: 1d98 e63e 5b8f eb3d 923d 61bd 07c8 75be
00000340: e4d2 d5bd 33d6 61be ff69 5ebe da68 e13d
00000350: b7e0 d13d a45e be3d 872d 683e 84f3 4e3e
00000360: 06b3 363e a9b1 b7be cf30 c93e 5d30 a73d
00000370: 4da3 1a3e cab7 29be 9440 12bd 254f afbd
00000380: 5cbc 8bbd 9c79 71bd 25bf adbd f4c3 e63e
00000390: f968 ae3d 1380 abbd 31d6 47be 9765 743e
000003a0: 1e73 8e3d 2078 4e3e 91b5 a33d bb72 283e
000003b0: 8133 32be 9860 863e 2ad9 c8bd 0670 523d
000003c0: c857 5a3d a9ad 6dbd b277 743d e7f8 7ebc
000003d0: dd40 9d3d 9082 1a3e 9f37 c9bd 11ff cd3e
000003e0: 5f70 d0bc aaf5 49be 551e 17bd e34e 283e
000003f0: 9426 6fbd f801 313e ffa6 45be e6ef 1abe
0.048206322 -0.0065208273 0.06171002 -0.027174763 0.010883419 0.06877159 -0.08572583 0.1648221
0.17843011 0.1612627 -0.051707163 0.021560568 -0.18943559 0.019027859 -0.18266955 -0.11198039
0.13544239 -0.23024249 -0.052504767 0.041417547 -0.06532598 0.1991594 -0.14835018 0.08190137
-0.14122798 -0.01652875 0.13468066 0.38450578 0.108976975 0.061442025 0.14599954 0.18436107
0.20462358 -0.15596613 -0.12748216 0.2066636 -0.2101553 0.30377215 0.12171207 0.13666713
0.054919824 0.0385094 -0.08948832 0.04964644 -0.14186469 0.20391792 -0.15711474 -0.22030793
-0.025530512 -0.1259834 0.07575845 0.11112263 -0.032068375 0.14488865 -0.18373539 -0.20337568
-0.070093304 0.10968105 -0.08734078 -0.07166409 -0.1456823 -0.19539635 -0.12135364 -0.03421344
0.16068071 -0.074066356 -0.056200802 0.085805885 0.041051373 0.11715409 0.10544867 0.12424825
0.06255762 0.22558853 -0.20454319 -0.14857395 0.04541862 0.026115812 -0.11977004 -0.048308924
0.20138091 -0.18326418 0.13715166 -0.19981444 0.076384656 -0.18117338 -0.115208864 -0.0464369
0.077639036 -0.20453277 0.15742393 -0.090449646 0.19304179 -0.0893085 -0.0354442 0.056733098
0.12476581 -0.022306627 -0.109447196 0.13997816 -0.18804969 -0.06928767 -0.20467965 -0.21787252
0.18906263 -0.030480105 0.15094614 -0.17769693 0.08776792 -0.14100687 0.17322062 0.14791311
-0.084960766 0.06738707 0.11552558 0.21513183 0.13721837 0.021390865 0.24467129 0.12804472
0.15747249 0.07613959 0.18309097 0.05375701 0.07701908 -0.20055391 -0.17220998 -0.11237502
-0.20771287 -0.21202631 -0.07054243 0.029606635 -0.21412468 -0.2110469 0.12735644 -0.011245957
-0.053572565 -0.040126145 -0.088950664 -0.08610495 0.05351748 -0.11273345 -0.21998212 0.047783427
-0.13085857 -0.05746382 -0.06451889 -0.20128565 0.19410153 -0.20274623 -0.14180319 -0.15118288
0.06629245 -0.13604167 0.03345001 0.020831056 -0.14281534 -0.1356757 -0.012475411 0.14118628
-0.14579476 -0.14431965 -0.16275868 -0.16767962 0.19268645 0.15000635 -0.107212864 0.12931632
0.14195457 0.18885513 -0.11311377 -0.14276397 0.14056188 -0.1507857 -0.22616224 0.17151715
0.07831783 0.21885212 -0.19592132 -0.029118968 0.125462 -0.18688115 -0.06198533 -0.052025624
-0.11476326 0.09446249 0.13299866 -0.13804652 0.20991738 -0.048900135 -0.07448208 -0.18748868
-0.032405604 -0.010887892 -0.212962 0.018116781 -0.12092333 -0.19480227 -0.11103159 0.06692474
0.063957565 -0.30532166 -0.032033127 0.23180665 0.45037928 0.11501952 -0.05499036 -0.24002086
-0.10440615 -0.22054367 -0.21720122 0.11006327 0.10247939 0.09295395 0.22673617 0.20210081
0.1784173 -0.3587773 0.3929505 0.081635214 0.15101357 -0.16574016 -0.035706118 -0.085600175
-0.06823036 -0.058953866 -0.084837236 0.45071375 0.08516116 -0.083740376 -0.19515301 0.23866878
0.069555506 0.20163012 0.079936154 0.16450016 -0.1740246 0.2624557 -0.09807046 0.051376365
0.05330637 -0.058026943 0.059684463 -0.015562273 0.07678387 0.15088868 -0.09825062 0.40233663
-0.025444208 -0.1972262 -0.03689416 0.16436343 -0.0583864 0.17285907 -0.19301985 -0.15130576

fc3.bias f4 [20]
00000000: 1128 70bd 8a9d 8d3c c628 ffbd e93d e43d
00000010: 777b 01be 7076 9b3e 5fc8 bbbd a1c0 e9bd
00000020: 048f 08be 304f 243e f05b 4d3e 5393 4f3d
00000030: 0ec8 3d3e 7dce 923e 46bb ca3d bb4a 71be
00000040: e641 6abe 887e fc3c 04a5 0abe 486e 9a3e
-0.05863196 0.017287035 -0.12458949 0.11144621 -0.12644754 0.30363798 -0.09169077 -0.11413694
-0.13335806 0.16045833 0.20054603 0.05067761 0.18533346 0.28673163 0.09899001 -0.23563664
-0.22876701 0.030822054 -0.13539511 0.30162263

fc4.weight f4 [1, 20]
00000000: a8f4 a9bc 747c cc3e c6ae 17be 3a94 bf3d
00000010: 87d6 23be 72b4 f2be d1cf 243e caf3 c7bc
00000020: 09fb 3f3e 709e 763d 55fd 3bbf 23f3 073f
00000030: b4a8 113f 6a48 b7be 6c33 c33d 75ee 39bd
00000040: 8194 93be c6c9 523e cc76 693e c87d 0abf
-0.020746544 0.399387 -0.14812765 0.09354444 -0.15999804 -0.47403294 0.160949 -0.02440824
0.18748106 0.06020969 -0.7343343 0.5310537 0.56898046 -0.35797435 0.09531292 -0.045393426
-0.28824237 0.20584783 0.22799224 -0.54098177
